models/cosine_mlp.pt (torch, 3769 bytes, 5 tensors)

net.0.weight f4 [16, 1]
000000 76 7b 86 3f 12 f7 93 3f 20 e5 6f be d7 71 93 3f
       1.0506427 1.1559775 -0.23427248 1.1519116
000010 b0 5c 60 be 36 ca 08 3f 10 45 f9 be 28 d4 ad 3e
       -0.21910357 0.5343355 -0.48685503 0.33950925
000020 61 39 98 3f 0e cf 3b bf 08 55 58 3f b0 a6 3f 3e
       1.1892511 -0.73362815 0.8450475 0.1871593
000030 a5 f5 74 3f 50 ae 0a 3e 72 eb 3e 3f 60 94 10 be
       0.95687324 0.13543057 0.7457801 -0.141191

net.0.bias f4 [16]
000000 34 44 4b 3f 82 80 28 3d a4 05 ef be a1 91 d1 3c
       0.79400945 0.04113818 -0.4668399 0.025582137
000010 ac e5 eb be 03 84 e4 ba fc f3 cf be 99 96 3c 3f
       -0.46073663 -0.0017434362 -0.40615833 0.73667294
000020 13 0c ef be 8c 09 ec be 41 6e 9d be fe ec 19 bf
       -0.466889 -0.46101034 -0.3074818 -0.60127246
000030 02 02 42 bc 8a d8 7c bf 09 cb 77 3f c0 76 59 bf
       -0.011841299 -0.9876791 0.9679418 -0.84946823

net.2.weight f4 [8, 16]
000000 07 0d b8 3e 70 85 9c 3e ac 3f a6 bd 1f 9f d1 3e
       0.3594744 0.30570555 -0.08117613 0.40941712
000010 58 97 1f 3d 55 98 15 3f 00 e3 df 3c e7 e3 09 3d
       0.038962692 0.58435565 0.027329922 0.03366461
000020 34 ca b8 3e 08 d8 8a bd 74 e0 a8 3e fe 8f 64 3e
       0.3609177 -0.06779486 0.32983744 0.22320554
000030 81 c2 d6 3e 14 d5 df bd 30 cb 86 3e 70 38 37 3d
       0.4194527 -0.10929313 0.26326895 0.044731557
000040 5d 7e a7 3d cd cb b4 be a4 6a 7d be 63 c2 91 be
       0.08178399 -0.35311738 -0.24747711 -0.28468618
000050 9c 5b 44 be 38 aa f6 bd d8 78 93 3d 66 82 d4 3d
       -0.19175571 -0.120441854 0.072007835 0.10376434
000060 32 ea df 3c 00 82 8e bb 9b f2 0d 3e 38 e4 35 be
       0.027333353 -0.0043489933 0.13862078 -0.1776284
000070 50 cf 53 be f4 ba 2e be 23 5f a3 3d e0 52 b0 bd
       -0.20684552 -0.17063504 0.0797713 -0.08609557
000080 19 7f 9f 3d c3 8a 92 be 06 53 54 3e d3 ac bd be
       0.07787914 -0.28621492 0.20734796 -0.37045917
000090 8a ad 18 be 83 21 f0 be e2 41 66 3e 00 dd 0d 3e
       -0.1490995 -0.46900567 0.2248607 0.13853836
0000a0 10 56 76 3e 4e 45 53 be f2 49 8c be fe 48 48 be
       0.24056268 -0.20631906 -0.27400166 -0.19559094
0000b0 1a a1 dd be 6c 61 cf 3d 2b e6 19 3e 76 b7 54 3e
       -0.43286973 0.101260036 0.15029208 0.2077311
0000c0 74 34 04 be aa 84 2e be f8 d3 07 3e e4 f3 ce bd
       -0.12910634 -0.17042795 0.13264453 -0.10105112
0000d0 5c 5f 1b 3e f0 fe 72 bd 9a 71 12 3e 60 e7 46 be
       0.15173095 -0.05932516 0.14301148 -0.194242
0000e0 ba 30 01 be c4 18 9c 3d 38 7b 58 3d f4 89 82 bd
       -0.12616244 0.07621911 0.052851886 -0.06373969
0000f0 02 98 18 3e fa 07 2e 3e f6 a4 39 be 96 ab 08 be
       0.14901736 0.1699523 -0.18129334 -0.13346705
000100 db 1f bd 3e d7 a6 10 3e 2c 83 b5 bd 58 be e1 bc
       0.36938366 0.14126144 -0.0886291 -0.027556583
000110 84 9a 12 be ec a3 dd 3e 38 29 07 bd b6 ca ab bd
       -0.14316756 0.43289125 -0.032998294 -0.083882734
000120 ad 9f 92 3e 6e de 2e be 4c ca e8 bc 3a f8 0c be
       0.28637448 -0.17077038 -0.028416775 -0.13766566
000130 ce a4 7f 3c 44 01 23 be 70 7d b4 3e 70 68 41 3d
       0.015603257 -0.15918452 0.3525195 0.04721874
000140 1c c7 9d 3d 66 c4 6e be 54 22 28 be 14 6c aa bd
       0.07703993 -0.23317108 -0.16419345 -0.083213955
000150 c0 1f 20 3d 86 42 61 be 64 9b dc bd 58 42 19 be
       0.03909278 -0.21998033 -0.10771826 -0.14966714
000160 00 9e 35 3a 50 84 be bd f0 ea 8d bc 24 79 2d be
       0.0006928146 -0.0930258 -0.017323941 -0.16940743
000170 98 b7 2f be d2 59 15 be 9c 41 af bd 50 0e 4a be
       -0.17159879 -0.14585045 -0.08557436 -0.19732022
000180 90 da 13 3e 3e 72 f7 bd f6 42 5c 3e d7 7f 2e 3c
       0.14438844 -0.12082337 0.21509919 0.010650597
000190 b0 c7 58 be 08 a5 a7 3d c8 df 8c bd dd 73 22 be
       -0.21169925 0.08185774 -0.068786204 -0.15864511
0001a0 4a 06 7e be 50 81 7e be 1d 43 e3 3b c0 af 5f bd
       -0.24807087 -0.24854016 0.0069354908 -0.054610968
0001b0 66 1b f0 3c 00 17 52 be e2 8c fb 3d f2 ea 3b be
       0.02930994 -0.20516586 0.12282731 -0.18351343
0001c0 a6 75 b3 bd 1c 35 dd bd 14 29 04 3e 77 e6 5a 3d
       -0.08762674 -0.108011454 0.12906295 0.053442445
0001d0 a0 34 69 3e e6 64 13 bf 88 da 80 3d bd ec f2 bd
       0.22773981 -0.57575834 0.062916815 -0.118615605
0001e0 fc bd d0 bd 0c 9d 3f be ff 1d 1c 3e 2e e4 3b be
       -0.10192487 -0.18712252 0.15245818 -0.18348762
0001f0 c0 3f 36 bd e4 ef b3 3d 40 bb 95 3d ca 67 0a be
       -0.04449439 0.0878599 0.07311106 -0.13516155

net.2.bias f4 [8]
000000 ec 5a 71 3e 98 ec 06 3e 75 91 2b 3e ea 99 61 be
       0.2356984 0.13176191 0.16754706 -0.2203137
000010 88 66 f4 3d 00 9f 19 bd 07 2f 2f be 6f ba 89 3e
       0.11933619 -0.03750515 -0.17107783 0.2690005

net.4.weight f4 [1, 8]
000000 7c 44 86 3e 26 89 c8 be 76 66 f5 be ba 50 8a bc
       0.26224124 -0.39167136 -0.47929734 -0.016884197
000010 cb fd 9d 3e b8 06 b9 bd 64 e5 1d be 90 05 26 be
       0.3085769 -0.090344846 -0.15419537 -0.1621306
