models/cosine_mlp.pt (torch, 3769 bytes, 5 tensors)

net.0.weight f4 [16, 1]
000000 49 4a 6c 3f d0 6c 7f 3f 20 e5 6f be 99 1d 7a 3f
       0.9230085 0.9977541 -0.23427248 0.9770141
000010 b0 5c 60 be 9f 3a b7 3e 10 45 f9 be 43 5b e8 3e
       -0.21910357 0.35786912 -0.48685503 0.45382127
000020 02 db 80 3f 0e cf 3b bf 44 66 4c 3f b0 a6 3f 3e
       1.0066836 -0.73362815 0.79843545 0.1871593
000030 3b f0 47 3f 50 ae 0a 3e 30 58 22 3f 60 94 10 be
       0.7810094 0.13543057 0.63415813 -0.141191

net.0.bias f4 [16]
000000 b3 13 4d 3f bf ff 0e 3e a4 05 ef be c4 09 07 3e
       0.80108184 0.13964747 -0.4668399 0.13187319
000010 ac e5 eb be 46 02 8f 3b fc f3 cf be d1 1a 2b 3f
       -0.46073663 0.0043642847 -0.40615833 0.66837794
000020 36 77 29 bf 8c 09 ec be 73 08 b4 be fe ec 19 bf
       -0.66197526 -0.46101034 -0.35162696 -0.60127246
000030 8c 45 89 bc 8a d8 7c bf 3d 03 70 3f c0 76 59 bf
       -0.016756795 -0.9876791 0.9375494 -0.84946823

net.2.weight f4 [8, 16]
000000 eb fa 95 3e 09 99 3e 3e ac 3f a6 bd 08 15 95 3e
       0.29292998 0.18613066 -0.08117613 0.29117608
000010 58 97 1f 3d e5 40 d1 3e 00 e3 df 3c cd d5 f8 3b
       0.038962692 0.40869823 0.027329922 0.0075938464
000020 9f 8e 51 3e 08 d8 8a bd d3 aa 65 3e fe 8f 64 3e
       0.20464562 -0.06779486 0.22428446 0.22320554
000030 07 96 95 3e 14 d5 df bd 2f eb 65 3e 70 38 37 3d
       0.29216024 -0.10929313 0.22452997 0.044731557
000040 39 b6 9e 3d 4d 35 83 be a4 6a 7d be 7f ab 44 be
       0.077496 -0.25626603 -0.24747711 -0.19206046
000050 9c 5b 44 be 09 fd 70 3d d8 78 93 3d ef 8a 83 3d
       -0.19175571 0.058835063 0.072007835 0.06422984
000060 fb 31 43 3d 00 82 8e bb 74 92 11 3e 38 e4 35 be
       0.047655087 -0.0043489933 0.14216024 -0.1776284
000070 a0 83 c5 bd f4 ba 2e be 67 68 3b 3d e0 52 b0 bd
       -0.09644246 -0.17063504 0.045753863 -0.08609557
000080 c6 5b 77 3d de 48 27 be 06 53 54 3e 56 3f 7f be
       0.060390256 -0.1633639 0.20734796 -0.24926504
000090 8a ad 18 be a6 44 91 be e2 41 66 3e 14 23 a3 3d
       -0.1490995 -0.28372687 0.2248607 0.07965675
0000a0 10 56 76 3e 4e 45 53 be 8e ec 89 be fe 48 48 be
       0.24056268 -0.20631906 -0.2693829 -0.19559094
0000b0 d9 67 98 be 6c 61 cf 3d fc 5e ca 3d 76 b7 54 3e
       -0.2976673 0.101260036 0.09881398 0.2077311
0000c0 74 34 04 be aa 84 2e be f8 d3 07 3e e4 f3 ce bd
       -0.12910634 -0.17042795 0.13264453 -0.10105112
0000d0 5c 5f 1b 3e f0 fe 72 bd 9a 71 12 3e 60 e7 46 be
       0.15173095 -0.05932516 0.14301148 -0.194242
0000e0 ba 30 01 be c4 18 9c 3d 38 7b 58 3d f4 89 82 bd
       -0.12616244 0.07621911 0.052851886 -0.06373969
0000f0 02 98 18 3e fa 07 2e 3e f6 a4 39 be 96 ab 08 be
       0.14901736 0.1699523 -0.18129334 -0.13346705
000100 7c 5b a3 3e 8e 17 3a 3d 2c 83 b5 bd 8a c8 f6 bd
       0.31905735 0.04543262 -0.0886291 -0.120499685
000110 84 9a 12 be 40 5e 89 3e 38 29 07 bd 3b de d2 bd
       -0.14316756 0.2682972 -0.032998294 -0.10296293
000120 61 b3 08 3e 6e de 2e be 5a 49 d8 bd 3a f8 0c be
       0.13349678 -0.17077038 -0.10560866 -0.13766566
000130 37 3f b2 bd 44 01 23 be a1 8f a5 3e 70 68 41 3d
       -0.087034635 -0.15918452 0.32336143 0.04721874
000140 1c c7 9d 3d 66 c4 6e be 54 22 28 be 14 6c aa bd
       0.07703993 -0.23317108 -0.16419345 -0.083213955
000150 c0 1f 20 3d 86 42 61 be 64 9b dc bd 58 42 19 be
       0.03909278 -0.21998033 -0.10771826 -0.14966714
000160 00 9e 35 3a 50 84 be bd f0 ea 8d bc 24 79 2d be
       0.0006928146 -0.0930258 -0.017323941 -0.16940743
000170 98 b7 2f be d2 59 15 be 9c 41 af bd 50 0e 4a be
       -0.17159879 -0.14585045 -0.08557436 -0.19732022
000180 b9 55 14 3e 0a f0 f6 bd f6 42 5c 3e 8f 39 33 3c
       0.14485826 -0.120575026 0.21509919 0.010939016
000190 b0 c7 58 be af 27 d4 3d c8 df 8c bd 99 0b 22 be
       -0.21169925 0.103591315 -0.068786204 -0.15824737
0001a0 46 d0 86 be 50 81 7e be 1a 33 0e 3c c0 af 5f bd
       -0.26330775 -0.24854016 0.008679176 -0.054610968
0001b0 e8 0d f2 3c 00 17 52 be fd 92 fc 3d f2 ea 3b be
       0.029547647 -0.20516586 0.12332723 -0.18351343
0001c0 65 9e c5 bd 17 6d 20 bd 14 29 04 3e 51 ea f0 3d
       -0.09649352 -0.039166536 0.12906295 0.11763442
0001d0 a0 34 69 3e 13 c9 c2 be 88 da 80 3d 42 e5 1c be
       0.22773981 -0.38044032 0.062916815 -0.1532183
0001e0 63 0d e5 bd 0c 9d 3f be 79 16 1f 3e 2e e4 3b be
       -0.11184194 -0.18712252 0.15535916 -0.18348762
0001f0 c1 ec 18 3d e4 ef b3 3d e6 b9 28 3d ca 67 0a be
       0.03733516 0.0878599 0.04119291 -0.13516155

net.2.bias f4 [8]
000000 72 b5 87 3e e7 35 61 3d 22 91 9d 3d ea 99 61 be
       0.2650562 0.054983046 0.076936975 -0.2203137
000010 89 ac 11 3e 00 9f 19 bd 86 cc 2e be c2 fc 4c 3e
       0.14225973 -0.03750515 -0.17070207 0.20018294

net.4.weight f4 [1, 8]
000000 c8 a2 36 3e 29 2e 81 be 93 6a a6 be c0 50 8a bc
       0.17835534 -0.2523053 -0.32503185 -0.016884208
000010 53 d3 80 3e b8 06 b9 bd 3a 20 1e be 44 54 af bd
       0.25161228 -0.090344846 -0.15441981 -0.08560994
