models/cosine_mlp.pt (torch, 3769 bytes, 5 tensors)

net.0.weight f4 [16, 1]
0.9563637 1.0325693 -0.23427248 1.0217917 -0.21910357 0.4058326 -0.48685503 0.4316655
1.0467969 -0.73362815 0.8058751 0.1871593 0.82313275 0.13543057 0.6653777 -0.141191
00000000: 40d4 743f 3b2b 843f 20e5 6fbe 12ca 823f
00000010: b05c 60be 4ac9 cf3e 1045 f9be 4303 dd3e
00000020: 71fd 853f 0ecf 3bbf d54d 4e3f b0a6 3f3e
00000030: d4b8 523f 50ae 0a3e 3156 2a3f 6094 10be

net.0.bias f4 [16]
0.80442965 0.12384828 -0.4668399 0.11404866 -0.46073663 -0.006272523 -0.40615833 0.67342937
-0.6185912 -0.46101034 -0.34449148 -0.60127246 -0.01750327 -0.9876791 0.94552946 -0.84946823
00000000: 1aef 4d3f 2ba4 fd3d a405 efbe 5892 e93d
00000010: ace5 ebbe bd89 cdbb fcf3 cfbe de65 2c3f
00000020: fe5b 1ebf 8c09 ecbe 3061 b0be feec 19bf
00000030: 0563 8fbc 8ad8 7cbf 380e 723f c076 59bf

net.2.weight f4 [8, 16]
0.30883545 0.21412583 -0.08117613 0.31779963 0.038962692 0.46011344 0.027329922 0.017349936
0.24301763 -0.06779486 0.24761128 0.22320554 0.32134035 -0.10929313 0.23480143 0.044731557
0.0776886 -0.27398357 -0.24747711 -0.20784484 -0.19175571 0.007956695 0.072007835 0.0688077
0.04510968 -0.0043489933 0.14567709 -0.1776284 -0.11777565 -0.17063504 0.05061122 -0.08609557
0.06232556 -0.18338351 0.20734796 -0.267122 -0.1490995 -0.33520737 0.2248607 0.08644813
0.24056268 -0.20631906 -0.2689303 -0.19559094 -0.32183176 0.101260036 0.10484692 0.2077311
-0.12910634 -0.17042795 0.13264453 -0.10105112 0.15173095 -0.05932516 0.14301148 -0.194242
-0.12616244 0.07621911 0.052851886 -0.06373969 0.14901736 0.1699523 -0.18129334 -0.13346705
0.33067957 0.06774988 -0.0886291 -0.09994318 -0.14316756 0.316017 -0.032998294 -0.09620681
0.16873693 -0.17077038 -0.08838307 -0.13766566 -0.06380866 -0.15918452 0.33068147 0.04721874
0.07703993 -0.23317108 -0.16419345 -0.083213955 0.03909278 -0.21998033 -0.10771826 -0.14966714
0.0006928146 -0.0930258 -0.017323941 -0.16940743 -0.17159879 -0.14585045 -0.08557436 -0.19732022
0.14491965 -0.12321317 0.21509919 0.008983479 -0.21169925 0.0856413 -0.068786204 -0.15786844
-0.2647092 -0.24854016 0.005755458 -0.054610968 0.026799181 -0.20516586 0.124313824 -0.18351343
-0.0955093 -0.051645663 0.12906295 0.10689873 0.22773981 -0.43578622 0.062916815 -0.14924468
-0.11235996 -0.18712252 0.15416758 -0.18348762 0.021970399 0.0878599 0.04585834 -0.13516155
00000000: ae1f 9e3e cd43 5b3e ac3f a6bd a2b6 a23e
00000010: 5897 1f3d fd93 eb3e 00e3 df3c 7421 8e3c
00000020: 9dd9 783e 08d8 8abd d08d 7d3e fe8f 643e
00000030: b986 a43e 14d5 dfbd c96f 703e 7038 373d
00000040: 331b 9f3d 9347 8cbe a46a 7dbe 47d5 54be
00000050: 9c5b 44be cc5c 023c d878 933d 0deb 8c3d
00000060: eec4 383d 0082 8ebb 602c 153e 38e4 35be
00000070: 5c34 f1bd f4ba 2ebe b64d 4f3d e052 b0bd
00000080: 1649 7f3d e3c8 3bbe 0653 543e 37c4 88be
00000090: 8aad 18be 4da0 abbe e241 663e b80b b13d
000000a0: 1056 763e 4e45 53be 3bb1 89be fe48 48be
000000b0: 22c7 a4be 6c61 cf3d fbb9 d63d 76b7 543e
000000c0: 7434 04be aa84 2ebe f8d3 073e e4f3 cebd
000000d0: 5c5f 1b3e f0fe 72bd 9a71 123e 60e7 46be
000000e0: ba30 01be c418 9c3d 387b 583d f489 82bd
000000f0: 0298 183e fa07 2e3e f6a4 39be 96ab 08be
00000100: d54e a93e 73c0 8a3d 2c83 b5bd 03af ccbd
00000110: 849a 12be fbcc a13e 3829 07bd 1308 c5bd
00000120: 60c9 2c3e 6ede 2ebe 2f02 b5bd 3af8 0cbe
00000130: 1dae 82bd 4401 23be 154f a93e 7068 413d
00000140: 1cc7 9d3d 66c4 6ebe 5422 28be 146c aabd
00000150: c01f 203d 8642 61be 649b dcbd 5842 19be
00000160: 009e 353a 5084 bebd f0ea 8dbc 2479 2dbe
00000170: 98b7 2fbe d259 15be 9c41 afbd 500e 4abe
00000180: d165 143e 3057 fcbd f642 5c3e 712f 133c
00000190: b0c7 58be b564 af3d c8df 8cbd 44a8 21be
000001a0: f787 87be 5081 7ebe 4898 bc3b c0af 5fbd
000001b0: f589 db3c 0017 52be 3f98 fe3d f2ea 3bbe
000001c0: 619a c3bd 678a 53bd 1429 043e b9ed da3d
000001d0: a034 693e 5f1f dfbe 88da 803d 99d3 18be
000001e0: fb1c e6bd 0c9d 3fbe 1bde 1d3e 2ee4 3bbe
000001f0: 44fb b33c e4ef b33d f4d5 3b3d ca67 0abe

net.2.bias f4 [8]
0.26279455 0.066677354 0.08801894 -0.2203137 0.14030167 -0.03750515 -0.16816069 0.21057999
00000000: 028d 863e 238e 883d 4643 b43d ea99 61be
00000010: 3eab 0f3e 009f 19bd 5132 2cbe 48a2 573e

net.4.weight f4 [1, 8]
0.19638982 -0.27580026 -0.3520681 -0.016884208 0.2624034 -0.090344846 -0.1545424 -0.0976879
00000000: 6a1a 493e b135 8dbe 4542 b4be c050 8abc
00000010: bd59 863e b806 b9bd 5d40 1ebe 9810 c8bd
